01_Model.pt (torch, 649492 bytes, 24 tensors)

conv1.weight f4 [12, 3, 3, 3]
-0.14456864 0.14395832 0.129817 -0.06473506 0.17879397 -0.17215592 0.10715557 -0.15916903
-0.17344908 0.106803246 -0.100439526 -0.03859784 -0.070698164 -0.16847004 -0.16967717 0.103862315
0.11399704 -0.024169445 -0.09924098 0.10562259 0.051451866 0.12921697 0.09106068 0.029123392
0.15173116 -0.058683768 -0.16596591 0.17070985 0.007626172 0.09698541 0.043295663 -0.043304183
-0.06402891 0.10709692 -0.04361908 -0.18537024 -0.012468152 -0.15722245 0.08554705 0.019221839
0.15803742 0.040486522 -0.1433281 0.051163044 -0.043197438 0.040451754 -0.034100633 -0.031138098
0.18023983 0.19558346 -0.18366148 -0.13283607 -0.012344569 -0.057500537 0.040081095 0.2150557
0.1635531 -0.10270824 -0.11927796 0.18675704 -0.1267029 -0.025567016 -0.06490083 -0.017137837
-0.029866565 -0.13270596 0.07906165 -0.13781181 -0.029216345 -0.038972326 -0.057949793 0.03290531
0.04216283 -0.11570182 0.08677962 -0.09886196 -0.08501779 -0.012605446 0.046878874 0.14051004
0.055247553 0.10259772 0.0902048 0.10493659 -0.11368128 -0.117015444 -0.051659282 -0.14155337
0.100147806 0.05491977 0.130523 0.0063010873 -0.17447178 0.0827361 -0.1803771 0.03601794
-0.15260476 0.080990456 -0.13529938 0.12796807 0.13693967 0.09053235 0.10965823 -0.1325582
-0.07374845 -0.05283644 -0.12842026 0.042460535 0.034466863 -0.17640403 0.040723197 -0.005858283
-0.016970681 -0.031644084 0.057819065 0.1397226 -0.09562196 -0.13883181 -0.024915943 0.14722848
-0.049919248 -0.15546243 0.15488277 -0.03681956 0.13986927 0.06983945 -0.068382695 0.19209822
-0.16656296 0.017644765 -0.060264137 0.18760079 -0.10938092 0.026314853 -0.146109 0.07333577
-0.0036442506 0.08336937 -0.08392875 -0.03423296 -0.19469152 -0.08736748 -0.105753414 0.12211179
-0.15164381 0.13028121 0.13421333 0.091731966 -0.0026038596 0.045349665 0.10530647 -0.046136286
0.17285408 -0.15970428 -0.0043407218 -0.14817534 -0.12552197 0.11162524 0.14305283 0.17720366
-0.1367177 -0.05050911 -0.11687925 0.09493382 0.12042154 0.05970917 0.0207234 0.122453414
-0.020070275 0.027570238 -0.14173499 0.16937006 -0.17685077 0.09166582 0.113369726 0.067337245
-0.048608337 0.04129334 -0.1128052 -0.1008181 0.01865986 -0.08497887 -0.19398005 -0.18329376
0.17046301 0.056827564 0.1262338 -0.16450341 -0.0036048894 0.04917713 -0.020637069 0.12232019
-0.14083642 0.18064134 -0.031994794 0.019895518 -0.18237704 0.19596316 -0.077958114 -0.08660614
0.08315805 0.17244521 -0.08644532 -0.044203285 0.054044478 -0.18197875 -0.06260238 -0.029114168
-0.12341236 -0.16437769 0.10345832 -0.08896073 -0.13052545 -0.087258264 -0.120923825 -0.065479785
-0.055970713 -0.14839263 0.13721837 0.14447342 0.0009972659 0.18578312 -0.07354268 -0.08748742
-0.15014032 -0.19642445 -0.06056078 -0.15265256 0.10688648 -0.047341503 -0.011974219 0.18710296
0.12569205 0.17605464 0.06437701 -0.17592399 -0.028649436 -0.051101547 0.100363284 -0.13206537
0.084319 -0.09563603 0.19614623 -0.049195424 -0.15208538 -0.065542035 0.06543848 0.042472072
-0.1714467 0.03542519 0.044132978 0.04642783 -0.06465749 -0.16736127 0.15111592 -0.057668798
00000000: cd09 14be cf69 133e bfee 043e d193 84bd
00000010: c415 373e a449 30be 6174 db3d 35fd 22be
00000020: a39c 31be a9bb da3d 3db3 cdbd c518 1ebd
00000030: 33ca 90bd 6983 2cbe dabf 2dbe c4b5 d43d
00000040: 4877 e93d 00ff c5bc db3e cbbd a850 d83d
00000050: 31bf 523d 7451 043e 067e ba3d 2e94 ee3c
00000060: 6a5f 1b3e 645e 70bd f8f2 29be 90ce 2e3e
00000070: f8e4 f93b 49a0 c63d cb56 313d ba5f 31bd
00000080: 9721 83bd a155 db3d eca9 32bd b2d1 3dbe
00000090: 3847 4cbc ecfe 20be 4b33 af3d 1e77 9d3c
000000a0: 90d4 213e 32d5 253d 9ac4 12be 5790 513d
000000b0: ccef 30bd bdb0 253d 1bad 0bbd 5315 ffbc
000000c0: ca90 383e 0847 483e c111 3cbe 2e06 08be
000000d0: e040 4abc af85 6bbd 132c 243d 9037 5c3e
000000e0: 777a 273e b358 d2bd 0148 f4bd 3d3d 3f3e
000000f0: 68be 01be eb71 d1bc baea 84bd a664 8cbc
00000100: baaa f4bc 12e4 07be 13eb a13d 8a1e 0dbe
00000110: 1e57 efbc 72a1 1fbd c35c 6dbd b8c7 063d
00000120: eeb2 2c3d 13f5 ecbd 83b9 b13d 2478 cabd
00000130: cf1d aebd 1387 4ebc 1004 403d dde1 0f3e
00000140: 424b 623d c11e d23d 4bbd b83d ffe8 d63d
00000150: bbd1 e8bd cba5 efbd af98 53bd 5ef3 10be
00000160: 4b1a cd3d 8ef3 603d d2a7 053e 5a79 ce3b
00000170: bba8 32be 8b71 a93d c6b4 38be 8c87 133d
00000180: 6c44 1cbe 53de a53d ec8b 0abe 100a 033e
00000190: ea39 0c3e 0669 b93d 7e94 e03d 56bd 07be
000001a0: 6d09 97bd 066b 58bd 9a80 03be 19eb 2d3d
000001b0: 202d 0d3d 42a3 34be 5ecd 263d d7f6 bfbb
000001c0: 1906 8bbc 3a9d 01bd afd3 6c3d 7113 0f3e
000001d0: 72d5 c3bd ed29 0ebe 851c ccbc 10c3 163e
000001e0: 2078 4cbd 8b31 1fbe 9799 1e3e 1bd0 16bd
000001f0: e439 0f3e fc07 8f3d 3a0c 8cbd 65b5 443e
00000200: 7b8f 2abe c18b 903c 87d7 76bd 6c1a 403e
00000210: 1b03 e0bd 3f92 d73c 999d 15be 1031 963d
00000220: 61d4 6ebb 8fbd aa3d d6e2 abbd dc37 0cbd
00000230: 375d 47be b9ed b2bd 3f95 d8bd bf15 fa3d
00000240: 8448 1bbe 7068 053e 386f 093e f8dd bb3d
00000250: 84a5 2abb 92c0 393d ebaa d73d 67f9 3cbd
00000260: a900 313e 8589 23be 9d3c 8ebb 47bb 17be
00000270: d588 00be c69b e43d 717c 123e e074 353e
00000280: baff 0bbe a4e2 4ebd 635e efbd aa6c c23d
00000290: 929f f63d 9a91 743d 1fc4 a93c dbc8 fa3d
000002a0: 6b6a a4bc fbda e13c fa22 11be 586f 2d3e
000002b0: 5e18 35be 4abb bb3d 632e e83d 1ce8 893d
000002c0: 8919 47bd 3523 293d 6a06 e7bd b879 cebd
000002d0: 90dc 983c 6709 aebd b5a2 46be 5cb1 3bbe
000002e0: db8d 2e3e 05c4 683d 6f43 013e 9573 28be
000002f0: 0240 6cbb f56d 493d 120f a9bc 0283 fa3d
00000300: 6c37 10be 0bfa 383e f90c 03bd edfb a23c
00000310: 0cc1 3abe 91aa 483e 81a8 9fbd 8f5e b1bd
00000320: c54e aa3d 7a95 303e 3e0a b1bd 810e 35bd
00000330: be5d 5d3d a358 3abe ad35 80bd d680 eebc
00000340: 9fbf fcbd a052 28be f5e1 d33d 0b31 b6bd
00000350: 77a8 05be 76b4 b2bd e9a6 f7bd 441a 86bd
00000360: 8c41 65bd 3df4 17be f982 0c3e d7f0 133e
00000370: b1b6 823a ee3d 3e3e 8b9d 96bd 9b2c b3bd
00000380: 62be 19be 7e23 49be 950e 78bd f450 1cbe
00000390: 4ce7 da3d 2ae9 41bd 842f 44bc eb97 3f3e
000003a0: 6bb5 003e ab47 343e 18d8 833d 6b25 34be
000003b0: 39b2 eabc db4f 51bd 448b cd3d 253c 07be
000003c0: 71af ac3d d3dc c3bd 8fda 483e 2481 49bd
000003d0: 45bc 1bbe e73a 86bd 9c04 863d 32f7 2d3d
000003e0: b98f 2fbe 011a 113d c8c4 343d 1c2b 3e3d
000003f0: 256b 84bd c160 2bbe 22be 1a3e 1e36 6cbd

conv1.bias f4 [12]
-0.015696311 0.16753419 0.14965564 0.051883537 -0.066026166 -0.09314914 0.025564743 -0.08471907
-0.13170344 -0.1303679 0.0988747 -0.19668552
00000000: 8d95 80bc 158e 2b3e 543f 193e d583 543d
00000010: ba38 87bd fac4 bebd 276d d13c 3181 adbd
00000020: 44dd 06be 2a7f 05be d27e ca3d ee67 49be

bn1.weight f4 [12]
0.9895431 0.9949193 1.0032532 1.0070872 1.0141122 1.0117478 0.99876773 0.9941852
1.0061 0.9832051 1.0024296 0.9892142
00000000: b252 7d3f 08b3 7e3f 9a6a 803f 3ce8 803f
00000010: 6ece 813f f480 813f 3eaf 7f3f ec82 7e3f
00000020: e3c7 803f 54b3 7b3f 9d4f 803f 243d 7d3f

bn1.bias f4 [12]
-0.018342104 0.022102749 0.0046844077 -0.011392104 -0.010411467 0.0021652274 0.004108429 -0.0051067746
0.0067851357 -0.005027893 0.016836839 -0.0011764967
00000000: 2e42 96bc d310 b53c a97f 993b f3a5 3abc
00000010: dc94 2abc 7de6 0d3b 00a0 863b bb56 a7bb
00000020: d855 de3b 06c1 a4bb 69ed 893c ae34 9aba

bn1.running_mean f4 [12]
0.15065213 0.32234612 0.2955871 0.22806242 0.08278528 0.06403065 0.21588342 0.4309752
0.09257996 0.058551762 0.11732091 0.24952742
00000000: 8d44 1a3e 8d0a a53e 3157 973e 3289 693e
00000010: 548b a93d 8022 833d 8b10 5d3e c8a8 dc3e
00000020: 909a bd3d f9d3 6f3d f245 f03d 1e84 7f3e

bn1.running_var f4 [12]
0.038022283 0.049166966 0.04446169 0.057356905 0.014343095 0.012192629 0.03208807 0.1618261
0.037152458 0.016747048 0.01365658 0.13573729
00000000: 41bd 1b3d 4d63 493d 761d 363d 13ef 6a3d
00000010: 4dff 6a3c 98c3 473c c86e 033d beb5 253e
00000020: 2d2d 183d 1b31 893c d9bf 5f3c b7fe 0a3e

conv2.weight f4 [48, 12, 3, 3]
-0.009728748 0.010515084 0.010952961 -0.040769503 -0.09169798 0.033162717 -0.056271702 -0.025501112
0.04639361 -0.066050254 0.051946595 -0.074492455 0.025785344 0.006693228 0.027946416 -0.033394016
-0.08830477 -0.09280748 -0.023157958 -0.06339657 -0.06562525 0.018825177 -0.03579186 0.07522667
-0.080649674 0.076714195 0.07779397 -0.04697393 0.019931002 -0.04989332 0.04339185 -0.045769237
0.044340555 -0.05660563 0.08390821 0.059064705 -0.09621374 0.041502323 0.034242563 -0.104567856
-0.08182781 -0.094302356 -0.08311205 0.010330485 -0.051527366 0.0092941495 0.07149669 -0.03543224
0.10142557 -0.039083287 -0.01043675 0.08999528 -0.09124039 -0.0070147384 0.071895905 0.016831908
0.05623513 0.04801921 0.06095594 -0.035448097 -0.063736394 -0.06079304 -0.04671458 0.10108008
0.0032470769 0.010039805 -0.08076246 -0.030842854 -0.049923126 -0.08488348 -0.06663008 0.050376378
0.08054857 -0.040067498 0.060378402 -0.08462053 -0.056560464 -0.08972613 -0.09371148 -0.055073895
-0.033118255 -0.06709767 0.035817247 -0.06930233 -0.079541296 -0.04724532 0.089199714 0.028753357
0.034541037 -0.0870564 -0.003143815 0.011897084 0.051263414 -0.0050787874 -0.018673401 0.050977584
0.08737728 -0.077693366 -0.08300973 0.066914044 0.037438404 -0.061814357 -0.075689405 0.06966763
0.0681456 -0.030430889 -0.0898558 0.060290504 -0.08065231 0.099122144 0.04460727 0.075747535
0.024002776 -0.084676236 0.067878485 -0.075989656 0.08984512 0.05402487 -0.0639838 -0.053960934
0.015889777 0.022719461 0.013230353 -0.0042768056 -0.052540895 -0.07468289 -0.087401085 -0.022302767
-0.08239073 0.06451416 0.06684537 -0.010163654 0.012038011 -0.05341594 0.05609783 0.00913612
-0.04082601 0.033857394 -0.060568903 0.047628082 0.023458408 -0.08090485 -0.08241443 0.042596135
-0.07661617 -0.0040640514 0.054672748 -0.044942934 -0.0007276722 0.043435115 0.051945377 0.016149268
-0.053666603 -0.0058278604 0.018197797 0.054270506 0.05036356 -0.033062737 -0.07169132 0.056668147
0.028338213 -0.028564991 -0.05749814 0.026924467 0.0012858582 0.028180951 -0.09494301 -0.028688608
-0.0016986275 -0.04767356 -0.10018277 -0.06610927 -0.03226179 0.017785177 -0.0006335032 -0.07798463
-0.08134535 0.035526138 -0.059640717 -0.004633468 0.070711926 0.033681955 -0.05673006 -0.067197084
-0.030662742 0.054762024 -0.02072708 -0.023596844 0.03590619 0.011682831 0.08325272 0.057988673
-0.03332657 0.03048225 0.015494594 0.09248695 0.0367123 0.06837531 0.051018212 0.0778613
-0.06270637 0.07839824 0.06259013 0.04172424 0.03549436 0.020243717 -0.0341636 0.0721299
0.037706986 -0.027342342 0.010725997 0.08039221 -0.064665884 0.027161459 0.009948365 0.06822301
0.092602395 -0.059724413 0.086239696 -0.022713212 -0.06183381 -0.0025672198 -0.02638585 -0.003098441
0.0785861 -0.08974928 -0.06126948 -0.056523964 0.032510787 0.043266296 -0.07449146 0.0044158506
0.02271479 -0.10215396 -0.09098726 0.03499144 0.073693044 0.012418863 0.031059938 0.09614178
0.0030694657 -0.08789533 -0.010964866 -0.019594306 0.065898836 0.07207871 0.05935071 -0.07604249
-0.005238207 -0.08628079 0.049052056 -0.06265588 0.0041731996 0.014275295 -0.037665352 -0.102874614
00000000: 5465 1fbc 7547 2c3c 0c74 333c ecfd 26bd
00000010: 27cc bbbd a1d5 073d 287d 66bd b5e7 d0bc
00000020: 3a07 3e3d 5b45 87bd f4c5 543d 808f 98bd
00000030: c93b d33c de52 db3b e2ef e43c 2ac8 08bd
00000040: 22d9 b4bd d911 bebd c2b5 bdbc 10d6 81bd
00000050: 8866 86bd 4237 9a3c 7c9a 12bd 7110 9a3d
00000060: a82b a5bd 551c 9d3d 7252 9f3d bc67 40bd
00000070: 5746 a33c f05c 4cbd a7bb 313d 8678 3bbd
00000080: 719e 353d 4edb 67bd 11d8 ab3d d5ed 713d
00000090: b60b c5bd 57fe 293d ee41 0c3d ac27 d6bd
000000a0: 5795 a7bd 9821 c1bd a736 aabd 3241 293c
000000b0: 5c0e 53bd 7d46 183c db6c 923d 6621 11bd
000000c0: 36b8 cf3d cc15 20bd e7fe 2abc 724f b83d
000000d0: 3edc babd e4db e5bb 293e 933d 12e3 893c
000000e0: cf56 663d cbaf 443d f0ac 793d 0632 11bd
000000f0: 3a88 82bd 1f02 79bd ca57 3fbd 1303 cf3d
00000100: e9cc 543b ff7d 243c ca66 a5bd 27aa fcbc
00000110: 317c 4cbd 64d7 adbd 5a75 88bd 7657 4e3d
00000120: a6f6 a43d d11d 24bd 584f 773d 874d adbd
00000130: f2ab 67bd 55c2 b7bd ceeb bfbd 2a95 61bd
00000140: 02a7 07bd 816a 89bd 1bb5 123d 61ee 8dbd
00000150: 8ce6 a2bd 4f84 41bd 57ae b63d 298c eb3c
00000160: e77a 0d3d a04a b2bd 7708 4ebb fdeb 423c
00000170: 96f9 513d f56b a6bb f6f8 98bc dfcd 503d
00000180: dcf2 b23d b31d 9fbd 0101 aabd 3b0a 893d
00000190: 0359 193d 0d31 7dbd 0c03 9bbd e7ad 8e3d
000001a0: ec8f 8b3d 334a f9bc 5106 b8bd 2df3 763d
000001b0: 0a2d a5bd 8d00 cb3d 1db6 363d 8621 9b3d
000001c0: 78a1 c43c bc6a adbd e003 8b3d 77a0 9bbd
000001d0: b800 b83d 2f49 5d3d f009 83bd 2406 5dbd
000001e0: 472b 823c 2a1e ba3c 1fc4 583c 7224 8cbb
000001f0: 1f35 57bd 58f3 98bd 57ff b2bd 4bb4 b6bc
00000200: 79bc a8bd 0020 843d 3ae6 883d 7485 26bc
00000210: 143b 453c acca 5abd d7c6 653d aaaf 153c
00000220: 2d39 27bd 0dae 0a3d 1917 78bd aa15 433d
00000230: d92b c03c 71b1 a5bd e6c8 a8bd 4979 2e3d
00000240: f0e8 9cbd bc2b 85bb 88f0 5f3d 1516 38bd
00000250: 41c1 3eba 05e9 313d adc4 543d 784b 843c
00000260: 83d1 5bbd a3f7 bebb 8c13 953c c04a 5e3d
00000270: 054a 4e3d cb6c 07bd e6d2 92bd dc1c 683d
00000280: 8a25 e83c 2101 eabc 2b83 6bbd b390 dc3c
00000290: 3e8a a83a bddb e63c 7b71 c2bd 5f04 ebbc
000002a0: 7ba4 deba 5a45 43bd a02c cdbd 4c64 87bd
000002b0: f024 04bd 38b2 913c ae11 26ba 68b6 9fbd
000002c0: 6498 a6bd db83 113d d349 74bd 59d4 97bb
000002d0: 6ad1 903d 17f6 093d c85d 68bd a09e 89bd
000002e0: 6e30 fbbc 254e 603d d6cb a9bc 2b4e c1bc
000002f0: 5e12 133d 5869 3f3c 6780 aa3d 8885 6d3d
00000300: 7181 08bd e9b5 f93c 0add 7d3c cc69 bd3d
00000310: a35f 163d 5b08 8c3d 79f8 503d bf75 9f3d
00000320: 336c 80bd 428f a03d 412f 803d 09e7 2a3d
00000330: 8962 113d 27d6 a53c 22ef 0bbd d7b8 933d
00000340: a472 1a3d 0cfd dfbc 18bc 2f3c aca4 a43d
00000350: 8c6f 84bd b581 de3c 78fe 223c 81b8 8b3d
00000360: 53a6 bd3d 96a1 74bd 709e b03d 0f11 babc
00000370: 7345 7dbd cd3e 28bb 2327 d8bc 370f 4bbb
00000380: c0f1 a03d 78ce b7bd b5f5 7abd ac85 67bd
00000390: 082a 053d 0038 313d fb8e 98bd d7b2 903b
000003a0: 5e14 ba3c 1836 d1bd 8757 babd 2f53 0f3d
000003b0: 61ec 963d 7d78 4b3c 6971 fe3c fbe5 c43d
000003c0: 1729 493b 7702 b4bd fba5 33bc 3d84 a0bc
000003d0: f8f5 863d 019e 933d bb19 733d 2abc 9bbd
000003e0: 44a5 abbb fcb3 b0bd cfea 483d ba51 80bd
000003f0: 56bf 883b ede2 693c fc46 1abd edaf d2bd

conv2.bias f4 [48]
0.07132721 0.07198759 0.055508178 0.014665282 -0.028134903 0.069467895 -0.035693757 -0.055153895
-0.06982485 -0.051676665 0.077899165 0.013727273 0.0034844677 0.065758124 0.057091918 -0.099471375
-0.053968243 0.046164133 -0.057398047 0.07124104 -0.0972828 0.101189055 -0.01704208 0.08330505
0.047029402 -0.025771588 -0.04999592 -0.009341105 0.05982053 0.088991635 -0.101659514 -0.072704256
0.07659923 0.02100606 0.047245447 -0.0017944745 0.07541812 0.07528419 -0.08241225 0.08023134
-0.022211451 -0.09773412 -0.02429127 -0.014747097 0.03505954 -0.06385049 0.1033742 -0.083755
00000000: 0014 923d 3b6e 933d 8b5c 633d a746 703c
00000010: 2b7b e6bc 2f45 8e3d 9e33 12bd 0de9 61bd
00000020: 5500 8fbd e9aa 53bd 9989 9f3d 5be8 603c
00000030: ab5b 643b 32ac 863d 37d9 693d a6b7 cbbd
00000040: ce0d 5dbd 9a16 3d3d 371a 6bbd d3e6 913d
00000050: 343c c7bd 353c cf3d d59b 8bbc d79b aa3d
00000060: e7a1 403d f01e d3bc 86c8 4cbd 6f0b 19bc
00000070: 5f06 753d 3f41 b63d dd32 d0bd f8e5 94bd
00000080: 0fe0 9c3d e714 ac3c 7184 413d 9334 ebba
00000090: d174 9a3d 992e 9a3d c1c7 a8bd 5450 a43d
000000a0: caf4 b5bc d428 c8bd 7cfe c6bc cf9d 71bc
000000b0: 989a 0f3d 0cc4 82bd dab5 d33d be87 abbd

bn2.weight f4 [48]
1.0105139 0.99060273 1.0014558 0.990754 1.0024881 0.9983109 0.9911253 1.0019068
0.97882736 1.0000997 1.0059372 0.99655837 1.004927 1.0075856 1.0019016 1.0023066
0.99875826 1.0039184 1.0040083 1.0112711 1.0031092 1.0042784 0.9961208 1.0007387
1.0005677 1.0082841 1.0003092 0.9957123 0.9911463 0.9982429 0.9897701 1.0009829
1.0094488 0.99116564 1.0181507 0.9938567 0.9970082 0.9939152 1.0046598 0.99972624
0.9928763 0.98509526 1.0046241 1.0049585 0.99634296 1.0019706 0.99012643 0.9933759
00000000: 8558 813f 2498 7d3f b42f 803f 0ea2 7d3f
00000010: 8851 803f 4e91 7f3f 63ba 7d3f 7b3e 803f
00000020: 6e94 7a3f 4403 803f 8dc2 803f 731e 7f3f
00000030: 73a1 803f 91f8 803f 503e 803f 954b 803f
00000040: 9fae 7f3f 6680 803f 5883 803f 5571 813f
00000050: e265 803f 328c 803f c601 7f3f 3518 803f
00000060: 9a12 803f 740f 813f 220a 803f 00e7 7e3f
00000070: c4bb 7d3f d98c 7f3f 9361 7d3f 3520 803f
00000080: 9e35 813f 08bd 7d3f c352 823f 656d 7e3f
00000090: ee3b 7f3f 3a71 7e3f b198 803f 0fee 7f3f
000000a0: 242d 7e3f 342f 7c3f 8697 803f 7ba2 803f
000000b0: 5510 7f3f 9340 803f ed78 7d3f e24d 7e3f

bn2.bias f4 [48]
0.00013704435 0.0053599495 0.0017794914 -0.020268107 -0.0005053986 -0.0015814396 -0.0012279849 0.006576498
-0.0004567421 -0.0102925105 0.00040877823 -0.0036843522 0.012646747 0.025808908 -0.009964769 0.004796548
0.016706338 0.012035047 -0.018239044 -0.0058447914 0.008116094 0.0008746202 0.005208293 0.008776086
0.0059129265 0.00021299586 -0.013386699 0.000947931 0.0072453734 0.017609293 0.0039971056 0.010221865
0.0146085415 -0.003969602 0.00035521324 -0.008391352 0.009844935 -0.0058973394 0.0032505982 0.0037876742
0.0050876033 0.003436824 0.0009003078 0.020015111 0.009756378 0.0074681253 -0.009408501 -0.00029365427
00000000: 90b3 0f39 84a2 af3b d33d e93a 4d09 a6bc
00000010: ba7c 04ba 4f48 cfba 56f4 a0ba aa7f d73b
00000020: e376 efb9 eba1 28bc 4951 d639 2c75 71bb
00000030: 4d34 4f3c 346d d33c 4543 23bc 5c2c 9d3b
00000040: bbdb 883c a52e 453c 0c6a 95bc aa85 bfbb
00000050: 5ef9 043c c546 653a 54aa aa3b 93c9 0f3c
00000060: 39c1 c13b a457 5f39 e353 5bbc 937e 783a
00000070: 996a ed3b 5d41 903c 27fa 823b 9c79 273c
00000080: aa58 6f3c 6f13 82bb ea3b ba39 e27b 09bc
00000090: a64c 213c 783e c1bb fd07 553b a13a 783b
000000a0: e9b5 a63b 573c 613b a202 6c3a bbf6 a33c
000000b0: 37d9 1f3c 2db7 f43b 1d26 1abc 9cf5 99b9

bn2.running_mean f4 [48]
0.4327746 0.4753899 0.33032095 0.2962985 0.32771972 0.3777889 0.42448968 0.40541765
0.35303518 0.2205284 0.42319182 0.33969024 0.32759693 0.42915764 0.35458842 0.43253136
0.23963352 0.3321511 0.35773546 0.35283387 0.32614088 0.38072252 0.3279928 0.4227038
0.32390356 0.261736 0.2717323 0.30274555 0.37766647 0.44234782 0.30945703 0.35198894
0.40516225 0.37604922 0.4398962 0.40848938 0.54280055 0.3648153 0.20556444 0.38872766
0.37287703 0.26912192 0.38367486 0.30806243 0.38335112 0.3016934 0.3926486 0.3721373
00000000: a294 dd3e 4e66 f33e d41f a93e 70b4 973e
00000010: e1ca a73e 8c6d c13e b656 d93e e792 cf3e
00000020: 07c1 b43e 32d2 613e 99ac d83e e1eb ad3e
00000030: c9ba a73e 8dba db3e 9d8c b53e c074 dd3e
00000040: 7d62 753e b50f aa3e 1a29 b73e a4a6 b43e
00000050: f0fb a63e 10ee c23e acee a73e a26c d83e
00000060: b0d6 a53e 4302 863e 7f20 8b3e 7701 9b3e
00000070: 805d c13e 6a7b e23e 2771 9e3e e537 b43e
00000080: 6d71 cf3e 8689 c03e 133a e13e 8525 d13e
00000090: faf4 0a3f 12c9 ba3e 7c7f 523e 5007 c73e
000000a0: bde9 be3e 59ca 893e 0871 c43e 5cba 9d3e
000000b0: 9946 c43e 8f77 9a3e 3d09 c93e c888 be3e

bn2.running_var f4 [48]
0.12548919 0.40372288 0.11012898 0.12093015 0.14248063 0.13518432 0.2745219 0.2715073
0.26348847 0.060318824 0.19541143 0.11858073 0.1376224 0.2662379 0.15527375 0.43560883
0.08340229 0.12331302 0.15412563 0.11798855 0.23275949 0.10573635 0.11755486 0.12844521
0.104245655 0.11879394 0.1000612 0.0879863 0.16398494 0.1924748 0.18207967 0.23934905
0.12213015 0.21880648 0.19851032 0.25005218 0.37697414 0.112515315 0.07660443 0.15852004
0.17175147 0.15183932 0.13122708 0.17967542 0.11469054 0.13714801 0.12967102 0.17018421
00000000: 3d80 003e c4b4 ce3e 4d8b e13d 3aaa f73d
00000010: 71e6 113e c26d 0a3e 228e 8c3e 0103 8b3e
00000020: f6e7 863e df10 773d ef19 483e 74da f23d
00000030: e3ec 0c3e 5650 883e 1500 1f3e 1f08 df3e
00000040: d2ce aa3d 898b fc3d 1cd3 1d3e fba3 f13d
00000050: 8158 6e3e 4d8c d83d 9ac0 f03d 2487 033e
00000060: bf7e d53d 3d4a f33d e3ec cc3d 2932 b43d
00000070: abeb 273e 1d18 453e 1873 3a3e eb17 753e
00000080: 5f1f fa3d ce0e 603e 4a46 4b3e d706 803e
00000090: c102 c13e 6e6e e63d c9e2 9c3d 1453 223e
000000a0: 9edf 2f3e c47b 1b3e 6460 063e d5fc 373e
000000b0: e0e2 ea3d 8770 0c3e 7bc8 043e c544 2e3e

conv3.weight f4 [12, 48, 3, 3]
-0.015360931 -0.007478993 0.025706386 -0.03152374 0.011439079 -0.005011266 0.016724901 0.035390038
0.008054469 -0.031771544 -0.0039483407 -0.05038712 0.01846661 0.0065888255 -0.0070078606 0.038871285
0.01886629 -0.033635955 -0.014036562 -0.008995066 -0.03221051 0.015201366 0.05134809 0.016608495
-0.023492003 -0.007183973 0.03891742 -0.018099487 -0.020113597 0.035440914 -0.03174887 -0.01759115
0.0017777105 0.03378429 -0.029261142 0.035460465 -0.028412187 -0.048452396 0.033683773 -0.015988065
0.004713526 0.018634355 -0.038550038 0.033057917 -0.024723096 -0.053050853 -0.048134606 0.0261725
-0.008947487 -0.04763402 -0.0023123655 -0.02744687 -0.010309468 0.022429183 0.034107924 -0.03661441
0.001536599 0.0018854606 -0.0047398517 0.0282187 0.014816545 -0.009789488 0.024482997 -0.048272308
-0.0076099653 0.022451907 0.029297983 -0.0028012574 -0.010499396 -0.015375255 0.011009134 -0.03755217
-0.036340408 0.022060208 0.027704744 -0.0054935208 0.015608606 -0.015609423 -0.04331163 -0.00063438894
0.022127356 0.032085232 0.0047095697 0.032422077 0.023339741 -0.010730312 0.06533558 0.045704506
0.0027922052 0.023866355 0.02686759 -0.046422336 -0.019077776 -0.026922273 -0.019741213 0.0024761194
0.015104554 -0.023555044 -0.028511226 0.013521299 0.035469405 -0.046919756 0.027628992 -0.010180559
0.04307509 -0.024734087 -0.033153385 0.021287866 0.038974103 -0.023095816 -0.009772898 -0.026127622
0.016465861 -0.036258947 -0.039117772 -0.037173864 -0.04192003 0.006426238 -0.0032702908 -0.045317374
0.013789409 -0.032107547 -0.01757639 -0.0003464002 -0.049179275 -0.009051212 -0.0024239596 0.023041736
-0.040059708 0.0037590968 -0.02262191 -0.02959191 0.028655617 0.021919275 0.051532578 -0.041157503
-0.034168497 -0.048004556 0.009021579 0.0076815276 -0.029456329 -0.044045012 0.040672045 0.043073144
-0.023890298 -0.006574889 0.024175808 -0.02303781 0.03354475 -0.046102516 0.04379771 0.023848858
0.001195288 -0.03608544 0.028981166 0.04358062 0.028738448 -0.02443683 0.015622984 0.04862847
-0.034988906 -0.00279806 0.037700325 0.050122503 0.030419068 0.03390962 -0.026918322 0.010012623
-0.030103493 0.00077073066 -0.026376083 0.029006252 -0.05310002 0.039752636 -0.032455247 -0.033124436
0.0018519819 0.0011243635 -0.028205127 -0.01768767 -0.012478622 0.0105791055 -0.029956965 -0.0546095
-0.020277292 -0.02877733 -0.010524498 -0.027223531 -0.029518677 0.00204688 -0.027233059 -0.04864832
0.007694583 0.031463463 -0.038177744 0.042189132 0.017249744 0.02857611 -0.011032568 -0.04662665
-0.039694466 -0.045850106 0.008801677 -0.03833319 0.027656384 0.029835131 0.024421344 0.021558551
-0.0150655415 -0.00027502677 0.042440616 0.032226995 0.025462268 0.051559217 0.023058303 0.024319706
-0.02156598 0.043969806 -0.017325122 0.044323824 0.006500875 -0.032316793 0.020288343 0.021254357
-0.036129303 0.011785731 -0.022203313 0.04256329 -0.021558965 0.012469922 0.030168343 0.005880687
0.0067434236 0.021364236 -0.037417486 0.027815439 0.020554533 -0.053243738 0.003018324 -0.045645997
0.022613566 -0.039551355 -0.033110257 -0.04795224 -0.010023899 -0.022334523 0.03766704 0.0037782073
0.008043885 0.04608452 0.0059922016 0.0181576 -0.013366398 0.032384925 -0.02583603 -0.02231746
00000000: 6aac 7bbc 5712 f5bb 3396 d23c 0a1f 01bd
00000010: fa6a 3b3c 8c35 a4bb a902 893c 25f5 103d
00000020: e4f6 033c e122 02bd 1561 81bb ba62 4ebd
00000030: 4a47 973c 13e7 d73b 32a2 e5bb 7f37 1f3d
00000040: 7a8d 9a3c dbc5 09bd 9cf9 65bc 0b60 13bc
00000050: 2bef 03bd 260f 793c 6052 523d 8a0e 883c
00000060: 4d72 c0bc 8967 ebbb df67 1f3d 6045 94bc
00000070: 45c5 a4bc 7e2a 113d 1a0b 02bd 511b 90bc
00000080: 1102 e93a 6561 0a3d 10b5 efbc fe3e 113d
00000090: adc0 e8bc 0576 46bd fff7 093d 67f9 82bc
000000a0: ec73 9a3b 13a7 983c a5e6 1dbd bd67 073d
000000b0: 1788 cabc da4b 59bd cb28 45bd b667 d63c
000000c0: 7b98 12bc e41b 43bd 0e8b 17bb 42d8 e0bc
000000d0: 0be9 28bc 68bd b73c c0b4 0b3d fef8 15bd
000000e0: b567 c93a 8f21 f73a c250 9bbb e72a e73c
000000f0: 18c1 723c 1764 20bc 9190 c83c 2fb9 45bd
00000100: 045d f9bb 10ed b73c 5302 f03c 4d95 37bb
00000110: a905 2cbc 7ee8 7bbc a85f 343c 4ed0 19bd
00000120: aed9 14bd 9cb7 b43c 0ff5 e23c fe02 b4bb
00000130: 3dbb 7f3c aabe 7fbc 8967 31bd 1f4d 26ba
00000140: 6e44 b53c ce6b 033d bc52 9a3b 03cd 043d
00000150: fc32 bf3c 31ce 2fbc a9ce 853d a634 3b3d
00000160: 6efd 363b 6083 c33c 6c19 dc3c 5925 3ebd
00000170: ff48 9cbc 198c dcbc 53b8 a1bc 6446 223b
00000180: 1779 773c 82f6 c0bc 6090 e9bc 7088 5d3c
00000190: 5e48 113d ee2e 40bd 3256 e23c 5ccc 26bc
000001a0: 816f 303d 249f cabc d8cb 07bd e463 ae3c
000001b0: 4fa3 1f3d 7033 bdbc 811e 20bc 9809 d6bc
000001c0: 6ae3 863c 4384 14bd f539 20bd 9f43 18bd
000001d0: 56b4 2bbd 3193 d23b 6052 56bb b69e 39bd
000001e0: f9ec 613c 3483 03bd 5dfc 8fbc 0c9d b5b9
000001f0: 3570 49bd 894b 14bc 4bdb 1ebb 06c2 bc3c
00000200: a615 24bd 2e5b 763b 9551 b9bc bc6a f2bc
00000210: 2fbf ea3c 0d90 b33c d313 533d c594 28bd
00000220: 44f4 0bbd 6da0 44bd 3fcf 133c 53b5 fb3b
00000230: 664e f1bc 8b68 34bd bb97 263d 776d 303d
00000240: 96b5 c3bc 2b72 d7bb 580c c63c cab9 bcbc
00000250: 3866 093d fed5 3cbd 3a65 333d ae5e c33c
00000260: 36ab 9c3a 54ce 13bd e969 ed3c 9881 323d
00000270: e56c eb3c bf2f c8bc 8bf7 7f3c a62e 473d
00000280: 8750 0fbd a85f 37bb a86b 1a3d 414d 4d3d
00000290: 6931 f93c d0e4 0a3d d083 dcbc fc0b 243c
000002a0: 9a9b f6bc dc0a 4a3a a812 d8bc 859e ed3c
000002b0: 687f 59bd a9d3 223d cbef 04bd 7dad 07bd
000002c0: 33be f23a 615f 933a 700e e7bc bce5 90bc
000002d0: 2273 4cbc fc53 2d3c 4f68 f5bc 36ae 5fbd
000002e0: 901c a6bc 6fbe ebbc f26e 2cbc e203 dfbc
000002f0: 27d1 f1bc f324 063b dd17 dfbc 7643 47bd
00000300: d722 fc3b d5df 003d 4460 1cbd 83ce 2c3d
00000310: 564f 8d3c 7218 ea3c f2c1 34bc 96fb 3ebd
00000320: aa96 22bd 52cd 3bbd e934 103c 4303 1dbd
00000330: a48f e23c ce68 f43c 450f c83c 8f9b b03c
00000340: 76d5 76bc 7831 90b9 36d6 2d3d 7400 043d
00000350: 3f96 d03c c22f 533d c4e4 bc3c 1f3a c73c
00000360: 23ab b0bc af19 343d 6aed 8dbc e68c 353d
00000370: 4b05 d53b 9d5e 04bd bd33 a63c 9e1d ae3c
00000380: 52fc 13bd f018 413c b9e3 b5bc d856 2e3d
00000390: 6d9c b0bc a54e 4c3c 9a23 f73c c7b2 c03b
000003a0: f0f7 dc3b 0d04 af3c 1443 19bd 34dd e33c
000003b0: fb61 a83c 1b16 5abd 13cf 453b 4cf7 3abd
000003c0: 1640 b93c 9a00 22bd 9f9e 07bd 9169 44bd
000003d0: 483b 24bc e4f6 b6bc c148 1a3d cd9b 773b
000003e0: 80ca 033c 1fc3 3c3d 3b5a c43b 3fbf 943c
000003f0: bdfe 5abc 0ea6 043d 15a6 d3bc 1bd3 b6bc

conv3.bias f4 [12]
0.036855318 0.009224893 0.0036535955 0.013560533 -0.043383565 0.040666066 0.000744423 0.023846194
0.012525171 -0.011371671 0.0072448505 0.04441372
00000000: 9af5 163d 0124 173c 2971 6f3b ff2c 5e3c
00000010: f7b2 31bd 7691 263d 6225 433a 1859 c33c
00000020: 6036 4d3c 3f50 3abc 3666 ed3b 29eb 353d

bn3.weight f4 [12]
1.0459074 1.0579712 1.0500553 1.0453342 1.0392069 1.0521786 1.0416067 1.0344963
1.0395563 1.0373187 1.045245 1.0555414
00000000: 4be0 853f 9a6b 873f 3668 863f 83cd 853f
00000010: bb04 853f caad 863f 5e53 853f 606a 843f
00000020: 2e10 853f dcc6 843f 97ca 853f fb1b 873f

bn3.bias f4 [12]
-0.008881696 -0.0137015 -0.0031448351 -0.0002812104 0.00011526282 -0.006091737 -0.0065357317 -0.007693839
-0.0039350223 -0.0049920753 0.004861514 -0.009622008
00000000: 8884 11bc 427c 60bc 9419 4ebb 6c6f 93b9
00000010: 41b9 f138 329d c7bb b129 d6bb 991c fcbb
00000020: 5cf1 80bb 9094 a3bb 564d 9f3b a0a5 1dbc

bn3.running_mean f4 [12]
0.42956182 0.4419315 0.4049831 0.43341208 0.38046598 0.4624009 0.37450135 0.42707455
0.4120683 0.52929574 0.39609244 0.43872598
00000000: 87ef db3e d844 e23e f259 cf3e 30e8 dd3e
00000010: 70cc c23e d0bf ec3e a4be bf3e 84a9 da3e
00000020: 9efa d23e ed7f 073f a1cc ca3e b1a0 e03e

bn3.running_var f4 [12]
0.1928711 0.17186853 0.16651875 0.18437636 0.16805898 0.18138188 0.21959049 0.16665265
0.13783139 0.2225802 0.120347425 0.16776994
00000000: 0080 453e 4efe 2f3e e483 2a3e 28cd 3c3e
00000010: a717 2c3e 2cbc 393e 54dc 603e fea6 2a3e
00000020: ac23 0d3e 10ec 633e b678 f63d e2cb 2b3e

fc1.weight f4 [100, 1452]
0.017905764 -0.0023888848 -0.02142026 -0.007125195 0.0091095 0.013075107 -0.011232102 0.017083138
-0.0072260317 -0.024097754 0.02503962 -0.003481944 -0.01770948 0.0057384395 -0.018133394 -0.011084253
-0.0009023469 0.0184978 -0.02865768 -0.0035035168 -0.031930618 -0.016432738 0.011904733 0.021507716
-0.013974083 0.011144941 0.041398197 0.04801731 0.021741768 0.02264348 0.02951288 -0.00038043305
0.004133669 0.019263323 -0.011948036 0.026596963 0.039193645 0.01557616 0.010259374 0.009208202
-0.0009356325 0.032659806 -0.016270567 -0.019342156 -0.00041593966 0.0066147805 0.0299273 0.028218681
-0.0067118476 -0.014392012 0.033281438 0.020437911 0.04014989 0.0021792573 -0.0022182728 0.018210853
0.0067430604 -0.0036807335 -0.017234346 0.0034807445 -0.00037606378 0.035888117 0.014865304 0.0031997946
0.018028647 0.0008146002 0.006877945 0.012436622 -0.032039218 0.015899159 0.011291779 0.021788146
0.03482191 0.01096306 -0.006067673 0.003326874 -0.018177964 -0.021708528 -0.018996289 -0.010591555
0.014657878 0.017308468 0.009273374 0.012852522 0.0054482636 -0.0012334604 -0.007712492 0.016377607
-0.0023545101 -0.0014105315 -0.010654711 -0.0050084097 -0.027203003 -0.011255396 -0.0074939285 -0.007165367
-0.02124593 0.0013294889 -0.018845795 -0.007393704 -0.0046036583 0.0047163432 -0.0003043568 0.0113982605
0.002566061 0.014332828 -0.0063384906 -0.018589495 0.00119142 -0.0093000205 0.021933313 -0.0052140965
0.0019148189 -0.018118868 0.0055426965 0.013741396 0.018697988 -0.014246565 0.019194324 -0.005692025
-0.017940836 -0.018490274 -0.022614215 0.009421831 -0.005075397 0.007469501 0.026729455 -0.010466403
-0.015695678 0.018054219 0.016276382 -0.0062432117 -0.013152313 0.02581114 0.0072957017 -0.039211564
-0.018184857 -0.0011908246 -0.004841555 -0.027624147 0.008185765 -0.022072203 0.019599134 0.021676466
-0.023163794 -0.013466856 -0.025258478 0.030717114 -0.0010376041 0.008677885 0.008374819 -0.015607246
-0.03484802 0.02452917 -0.01692318 -0.019169386 0.0008751007 0.00497049 0.016208181 0.017403785
0.020825155 0.030160138 0.0010690347 -0.0052123484 -0.018500274 0.0032640456 -0.011129092 0.007816793
0.026507279 -0.0020625694 0.0037330731 0.02571077 0.017377013 0.0063063097 -0.019637162 -0.0026739566
0.004030368 0.006089557 0.0010929141 0.027653376 -0.0013411908 0.013684901 -0.0009330077 -0.011650678
-0.014989611 0.014120438 0.007428579 -0.009436454 0.0056642345 0.01164598 0.0025796834 0.015249729
-0.0037712592 -0.010391073 0.0009818013 -0.029844552 -0.015452635 -0.010749096 0.0043429416 -0.011959238
0.0034299958 -0.015034376 -0.0044270167 0.032894053 -0.013736657 -0.014312059 -0.00863131 -0.019280724
0.0036456154 -0.009045217 -0.002563239 0.026471721 0.014006042 0.014029118 -0.045373984 -0.02885173
-0.007268113 -0.02865286 -0.031391833 0.012296936 0.02083833 0.0036725788 -0.020944363 -0.0048216814
0.006909353 -0.014014344 0.019620623 -0.016896648 -0.016091855 -0.011973931 0.016041351 0.010536865
-0.014457376 0.015612775 -0.010728153 0.011185085 0.023259908 -0.0070051127 -0.020183105 0.010662844
-0.01756881 0.006800216 -0.00186997 -0.021038841 -0.005300567 0.017222548 0.005214864 0.030184664
-0.0060104304 0.015199806 0.014468091 -0.020606706 0.031905938 -0.013854419 -0.0023427107 0.017252387
00000000: 1caf 923c d68e 1cbb 8b79 afbc 787a e9bb
00000010: 0340 153c f938 563c da06 38bc f0f1 8b3c
00000020: 59c8 ecbb a768 c5bc e41f cd3c 5431 64bb
00000030: 7913 91bc 8509 bc3b 7c8c 94bc ba9a 35bc
00000040: 7a8b 6cba b388 973c 83c3 eabc 429b 65bb
00000050: aec9 02bd f39d 86bc 120c 433c f330 b03c
00000060: 8df3 64bc 4599 363c 2891 293d cdad 443d
00000070: cb1b b23c d27e b93c ffc4 f13c dc74 c7b9
00000080: bb73 873b 1ece 9d3c b2c1 43bc e0e1 d93c
00000090: 8489 203d 2633 7f3c ef16 283c 00de 163c
000000a0: 3c45 75ba 4ac6 053d da49 85bc 7173 9ebc
000000b0: 7a12 dab9 cdc0 d83b 192a f53c dd2a e73c
000000c0: 0fef dbbb 79cc 6bbc 1e52 083d 686d a73c
000000d0: 3674 243d dfd1 0e3b 7160 11bb ed2e 953c
000000e0: e4f4 dc3b 7638 71bb 0b2f 8dbc 341d 643b
000000f0: 6d2a c5b9 6bff 123d 9b8d 733c a5b3 513b
00000100: d0b0 933c e58a 553a 6260 e13b f9c2 4b3c
00000110: 8e3b 03bd f43e 823c 2701 393c 0e7d b23c
00000120: 6ba1 0e3d 689e 333c 55d3 c6bb af07 5a3b
00000130: f4e9 94bc 15d6 b1bc 1b9e 9bbc 3488 2dbc
00000140: 9927 703c 7dca 8d3c 5aef 173c 6293 523c
00000150: 5987 b23b 10ac a1ba 12b9 fcbb 552a 863c
00000160: 204e 1abb 95e1 b8ba 1991 2ebc 961d a4bb
00000170: d5d8 debc 8d68 38bc a18f f5bb 74cb eabb
00000180: f20b aebc 3f42 ae3a 7f62 9abc e246 f2bb
00000190: 49da 96bb 8e8b 9a3b 1492 9fb9 c5bf 3a3c
000001a0: 5c2b 283b 3dd4 6a3c 1db3 cfbb ff48 98bc
000001b0: 6c29 9c3a 1d5f 18bc 7ead b33c 03db aabb
000001c0: a9fa fa3a 056e 94bc 829f b53b 9823 613c
000001d0: 862c 993c 6d6a 69bc 6a3d 9d3c 2b84 babb
000001e0: a9f8 92bc ea78 97bc 7241 b9bc 065e 1a3c
000001f0: 844f a6bb b7c2 f43b bbf7 da3c 477b 2bbc
00000200: 3994 80bc 71e6 933c 0c56 853c db93 ccbb
00000210: cd7c 57bc e271 d33c c810 ef3b 4e9c 20bd
00000220: 69f8 94bc 7115 9cba e8a5 9ebb 094c e2bc
00000230: 961d 063c c4d0 b4bc 5d8e a03c d892 b13c
00000240: ffc1 bdbc 17a4 5cbc deea cebc 75a2 fb3c
00000250: 3700 88ba b02d 0e3c 8936 093c 89b5 7fbc
00000260: ccbc 0ebd 66f1 c83c 7ba2 8abc 1e09 9dbc
00000270: 0467 653a 7edf a23b 05c7 843c 6292 8e3c
00000280: 8499 aa3c 6512 f73c da1e 8c3a 59cc aabb
00000290: e38d 97bc 99e9 553b cc56 36bc 0212 003c
000002a0: cb25 d93c 2c2c 07bb 93a6 743b 659f d23c
000002b0: 3d5a 8e3c 29a5 ce3b 1dde a0bc 8c3d 2fbb
000002c0: 2d11 843b e88a c73b 1d40 8f3a 5589 e23c
000002d0: e5ca afba a336 603c 1695 74ba 7ce2 3ebc
000002e0: fc96 75bc 6959 673c 706b f33b 5b9b 1abc
000002f0: 0b9b b93b c8ce 3e3c e80f 293b 00da 793c
00000300: 3b27 77bb 523f 2abc c9af 803a 907c f4bc
00000310: 0c2d 7dbc fa1c 30bc 3c4f 8e3b aef0 43bc
00000320: c8c9 603b be52 76bc 8210 91bb eabb 063d
00000330: b70f 61bc 207d 6abc 576a 0dbc 9cf2 9dbc
00000340: 47eb 6e3b 6432 14bc 04fc 27bb 39db d83c
00000350: 9979 653c 63da 653c 12da 39bd 775a ecbc
00000360: 5a29 eebb 67b9 eabc b994 00bd 1679 493c
00000370: 25b5 aa3c a6af 703b 8393 abbc 32ff 9dbb
00000380: db67 e23b 6b9c 65bc 6ebb a03c d76a 8abc
00000390: 11d3 83bc 4f2e 44bc 2769 833c d1a2 2c3c
000003a0: a1de 6cbc bacc 7f3c 23c5 2fbc a641 373c
000003b0: 908b be3c 258b e5bb 0a57 a5bc 36b3 2e3c
000003c0: 77ec 8fbc 59d4 de3b c819 f5ba a659 acbc
000003d0: 61b0 adbb 4d16 8d3c 73e1 aa3b d445 f73c
000003e0: 25f3 c4bb 9b08 793c 920b 6d3c 65cf a8bc
000003f0: cdaf 023d a5fd 62bc 2a88 19bb e154 8d3c

fc1.bias f4 [100]
-0.0029350265 0.004067174 0.009075969 0.013432038 0.02927955 -0.0021706088 -0.011573587 0.021013578
0.01719176 0.0066100364 -0.0058619934 0.004918207 0.012401524 -0.0209148 -0.016793307 -0.013905338
0.0011851422 0.018336495 0.0021720524 0.023994192 -0.0104026 -0.014201128 0.00347221 -0.00565111
-0.010288544 -0.005458689 0.0059101693 0.025147727 -0.015547721 0.022910452 0.0184354 0.01059341
0.019639142 -0.010695894 7.757272e-05 0.019601114 0.011995036 0.006688209 0.02645131 0.0161609
0.011055066 -0.003077802 0.0442383 -0.01561339 -0.0014632068 0.029155416 -0.01607488 -0.007920543
-0.01643679 0.013346691 -0.0040348065 0.0041795797 0.0051528374 -0.0030466667 -0.009042742 -0.0034831967
0.011343042 0.00022692585 -0.012378392 -0.013044953 0.00039113403 0.00045027913 -0.016248772 -0.023392249
-0.00634837 -0.008025447 0.008257517 0.033710323 -0.016465819 0.007914993 0.03355949 0.015067389
-0.012137409 -0.0114461 -0.007222938 -0.012867757 0.03145789 0.018013826 -0.0132110305 -0.0058332053
0.01794376 -0.010464972 -0.021909315 -0.012915052 0.021966381 -0.0020816969 -0.022828735 0.02799312
0.01901264 -0.0044736383 -0.004278941 -0.0066128545 -0.0070518306 -0.015959956 0.0014398256 0.033416446
-0.0056829737 0.0035623992 0.0057977573 0.022862153
00000000: 9359 40bb ee45 853b 60b3 143c 0d12 5c3c
00000010: abdb ef3c c640 0ebb 249f 3dbc ab24 ac3c
00000020: bcd5 8c3c 0199 d83b f715 c0bb e928 a13b
00000030: c32f 4b3c 8455 abbc 1e92 89bc 37d3 63bc
00000040: c656 9b3a 6b36 963c fe58 0e3b 788f c43c
00000050: ab6f 2abc d9ab 68bc 048e 633b f22c b9bb
00000060: 4891 28bc cdde b2bb 18aa c13b 9b02 ce3c
00000070: debb 7ebc b3ae bb3c d605 973c fb8f 2d3c
00000080: 44e2 a03c d53d 2fbc 89ae a238 8492 a03c
00000090: d486 443c c328 db3b 6bb0 d83c dd63 843c
000000a0: 4f20 353c f3b4 49bb 3833 353d 4ecf 7fbc
000000b0: 13c9 bfba 57d7 ee3c 77af 83bc 2ac5 01bc
000000c0: 72a6 86bc 14ac 5a3c 6936 84bb dbf4 883b
000000d0: 22d9 a83b 96aa 47bb 0228 14bc 5846 64bb
000000e0: 2bd8 393c f2f2 6d39 bdce 4abc 80ba 55bc
000000f0: 1f11 cd39 7113 ec39 251c 85bc 1aa1 bfbc
00000100: fd05 d0bb 2a7d 03bc 894a 073c d613 0a3d
00000110: 53e3 86bc e3ad 013c ad75 093d 36dd 763c
00000120: fcdb 46bc 6c88 3bbc 65ae ecbb 49d3 52bc
00000130: fdd9 003d bb91 933c 1473 58bc 7924 bfbb
00000140: cbfe 923c 4675 2bbc 2a7b b3bc a799 53bc
00000150: d7f2 b33c 146d 08bb 5403 bbbc d451 e53c
00000160: 65c0 9b3c 9997 92bb 5c36 8cbb a5b0 d8bb
00000170: 0b13 e7bb 74be 82bc 88b8 bc3a afdf 083d
00000180: 3d38 babb 2477 693b 1dfb bd3b 6949 bb3c

fc2.weight f4 [40, 100]
-0.012617895 -0.018534264 -0.025167795 -0.0010285939 -0.0075961 -0.08046344 -0.024624905 0.010106556
0.011228135 -0.05720483 -0.016465135 0.0711213 -0.016373191 -0.00092126057 -0.08184302 0.052940227
-0.0672512 -0.036063414 -0.018796654 0.012477787 -0.037953675 0.08630433 -0.052297495 0.1071524
-0.09464696 -0.086399384 -0.08892498 0.10208026 -0.057901803 0.064301305 0.10212239 0.041317295
0.042342927 -0.09760842 0.040965915 -0.009534641 0.07272779 -0.04368197 0.08857452 0.032811984
0.08793847 0.06514866 -0.00123258 0.00264676 0.078206584 0.036640834 -0.08623665 -0.007965969
-0.024760945 -0.07811395 -0.08367803 0.07807336 -0.065972224 0.066711314 0.08006602 0.020616027
-0.011124717 -0.08442803 0.050742015 0.0340955 0.081089824 0.09961602 -0.048599787 -0.09011207
0.022791395 -0.04143094 -0.050171144 0.0005284622 -0.04070121 -0.054128714 0.091992736 0.020807384
0.0070849336 -0.033640612 0.08778856 -0.06319014 0.011674701 -0.015882723 0.019852692 -0.10849982
0.09442937 -0.075852 -0.030359833 0.023474054 -0.09083914 -0.08426705 0.05231266 0.09972798
0.1021437 -0.0802235 -0.09272172 -0.052279513 0.048292074 0.047685385 -0.052307215 -0.055027287
-0.07984789 -0.002992597 0.015092894 -0.05893911 -0.09149918 -0.1005579 0.09568821 -0.06831036
0.0923432 0.076232634 0.060000416 0.07360165 0.025575744 0.036438286 0.050176878 0.042113367
-0.07844106 -0.051081635 0.054039847 0.06477648 -0.037480794 -0.06618771 -0.012769813 -0.07650487
-0.062085476 0.08775758 0.02924989 0.055128086 -0.01883322 -0.075513005 0.06355431 -0.0027477182
0.07220144 -0.056307133 0.01447199 0.030134292 0.036789745 0.082901575 0.10366524 0.05157689
0.03437425 -0.08820501 -0.08715333 -0.0012039837 -0.01507924 0.05137266 -0.009594636 0.11996589
0.102947414 -0.008547522 0.046026435 0.049959775 -0.026885591 0.028380018 -0.0028389648 0.048664734
0.1095505 0.08511443 -0.0029608477 0.021714712 -0.046598 -0.0065112556 -0.038143426 -0.09126168
0.08959909 -0.088104375 -0.045391515 0.012264941 0.04557809 -0.046638478 -0.0059671793 0.025857622
0.021721296 0.099069856 0.0038090106 0.062349554 0.08492479 0.0138121 -0.07928008 0.082914114
-0.0044555897 0.11805361 -0.0040054433 -0.06434615 0.0812863 0.0090067275 -0.07677802 0.09613602
-0.047102805 -0.021322034 -0.10687258 0.03634041 0.0908563 -0.082930885 0.06718855 0.04440621
-0.033113223 -0.0672791 -0.004939474 -0.04370196 -0.01188076 0.07672683 0.057801634 0.0028174308
-0.07127426 0.09345288 -0.012181987 -0.106157 -0.066016845 0.036174946 0.09154223 -0.048394557
-0.06790459 0.07380126 -0.031971294 0.062098037 -0.07680393 0.02732326 0.03822431 0.024955006
-0.072139375 -0.016062815 -0.056134097 0.07882047 0.026296755 -0.053407446 0.03564668 -0.0016034888
-0.10410794 0.035832778 0.07673125 -0.00017037604 -0.02792925 0.045285445 0.06670256 0.029087065
-0.036195513 -0.078797355 0.12352799 -0.058561962 -0.040809102 -0.058129355 0.09059537 -0.08185398
0.06664509 0.013897839 0.06620385 -0.058090523 -0.05048059 0.05315551 0.120199986 0.033764828
-0.034046564 0.040012978 -0.016960608 -0.009451139 0.001121188 -0.04012758 -0.0038662371 0.09153951
00000000: 4abb 4ebc 2bd5 97bc b12c cebc e2d1 86ba
00000010: b5e8 f8bb 04ca a4bd 2bba c9bc f895 253c
00000020: 36f6 373c 9d4f 6abd e4e1 86bc 0ba8 913d
00000030: 1221 86bc c080 71ba 509d a7bd dad7 583d
00000040: ffba 89bd 3bb7 13bd 71fb 99bc a26f 4c3c
00000050: 5075 1bbd 53c0 b03d e635 56bd b872 db3d
00000060: 44d6 c1bd 29f2 b0bd 4d1e b6bd 750f d13d
00000070: 712a 6dbd 67b0 833d 8b25 d13d 533c 293d
00000080: c76f 2d3d ece6 c7bd e0cb 273d 2f37 1cbc
00000090: 4ff2 943d deeb 32bd 8f66 b53d dc65 063d
000000a0: 1619 b43d a96c 853d 868e a1ba 4475 2d3b
000000b0: c62a a03d b314 163d d79c b0bd b283 02bc
000000c0: 77d7 cabc 35fa 9fbd 635f abbd ede4 9f3d
000000d0: 721c 87bd f19f 883d a7f9 a33d f1e2 a83c
000000e0: 7244 36bc 9ae8 acbd dcd6 4f3d b9a7 0b3d
000000f0: 6c12 a63d 7c03 cc3d 9210 47bd ad8c b8bd
00000100: 05b5 ba3c 7db3 29bd 4280 4dbd 7f88 0a3a
00000110: 50b6 26bd 12b6 5dbd b066 bc3d 3f74 aa3c
00000120: bb28 e83b bdca 09bd 7dca b33d d569 81bd
00000130: 3f47 3f3c 7c1c 82bc 1da2 a23c 2735 debd
00000140: 2f64 c13d 4b58 9bbd 2fb5 f8bc a94c c03c
00000150: df09 babd 3494 acbd cd45 563d 2f3e cc3d
00000160: b730 d13d 384c a4bd e3e4 bdbd 0b23 56bd
00000170: e9cd 453d c051 433d 1740 56bd 4b64 61bd
00000180: 4a87 a3bd 721f 44bb 3048 773c 236a 71bd
00000190: ec63 bbbd 4df1 cdbd 2ef8 c33d 4de6 8bbd
000001a0: 6f1e bd3d db1f 9c3d ffc2 753d 76bc 963d
000001b0: 3984 d13c 5040 153d 4586 4d3d 117f 2c3d
000001c0: b5a5 a0bd fa3a 51bd e358 5d3d 88a9 843d
000001d0: 7685 19bd 6c8d 87bd 7a38 51bc 96ae 9cbd
000001e0: 574d 7ebd 3fba b33d 779d ef3c fdcd 613d
000001f0: 2048 9abc 90a6 9abd c328 823d 1013 34bb
00000200: 59de 933d 4fa2 66bd ed1b 6d3c 31dc f63c
00000210: d8b0 163d 4dc8 a93d 714e d43d 4a42 533d
00000220: 03cc 0c3d d4a4 b4bd 727d b2bd fdce 9dba
00000230: eb0e 77bc 236c 523d d232 1dbc adb0 f53d
00000240: 18d6 d23d e80a 0cbc 3786 3c3d 9fa2 4c3d
00000250: 2c3f dcbc 367d e83c ed0d 3abb ac54 473d
00000260: 035c e03d 7950 ae3d c80a 42bb 0de3 b13c
00000270: 8bdd 3ebd 5f5c d5bb 483c 1cbd 67e7 babd
00000280: ba7f b73d 1170 b4bd 74ec 39bd e4f2 483c
00000290: 17b0 3a3d fd07 3fbd 5488 c3bb 5dd3 d33c
000002a0: dcf0 b13c 23e5 ca3d 98a0 793b 3f62 7f3d
000002b0: 0ced ad3d 254c 623c 985d a2bd e0ce a93d
000002c0: 3200 92bb 17c6 f13d 1840 83bb eac7 83bd
000002d0: 6f79 a63d f490 133c cb3d 9dbd f6e2 c43d
000002e0: dfee 40bd 8cab aebc 03e0 dabd afd9 143d
000002f0: de12 ba3d abd7 a9bd 279a 893d 49e3 353d
00000300: bba1 07bd a0c9 89bd 50db a1bb d400 33bd
00000310: 85a7 42bc f522 9d3d 68c1 6c3d a5a4 383b
00000320: 3df8 91bd 3964 bf3d f596 47bc d768 d9bd
00000330: d733 87bd 2e2c 143d 7e7a bb3d 5f39 46bd
00000340: 9011 8bbd 1d25 973d 55f4 02bd 835a 7e3d
00000350: 614b 9dbd 08d5 df3c 1891 1c3d 716e cc3c
00000360: cfbd 93bd 2a96 83bc deec 65bd a06c a13d
00000370: 4b6c d73c c4c1 5abd 4102 123d 282c d2ba
00000380: 8b36 d5bd 64c5 123d 4625 9d3d f8a6 32b9
00000390: e2cb e4bc 3b7d 393d 5a9b 883d ff47 ee3c
000003a0: bf41 14bd 8260 a1bd 3efc fc3d abde 6fbd
000003b0: 7227 27bd 0c19 6ebd 118a b93d 0fa3 a7bd
000003c0: 397d 883d c3b3 633c e295 873d 54f0 6dbd
000003d0: bcc4 4ebd 98b9 593d 692b f63d fd4c 0a3d
000003e0: 6974 0bbd a6e4 233d f9f0 8abc f3d8 1abc
000003f0: d4f4 923a d15c 24bd b260 7dbb 1179 bb3d

fc2.bias f4 [40]
0.05272362 -0.048075486 0.060686447 0.068065286 -0.031623654 0.07915978 -0.08840561 -0.09036529
0.06443643 -0.017746782 -0.050685186 -0.031059422 0.026587784 0.06756118 -0.012167758 0.037384722
0.09667263 -0.0038463273 0.083073124 -0.08002301 -0.0043872083 -0.0083735995 0.01988129 -0.029300233
-0.09217381 0.025935015 -0.0013455598 0.09980471 -0.09302623 -0.02606942 -0.03678251 0.0039359746
-0.019083787 0.08723105 0.072291486 -0.031321526 0.02011943 -0.013094024 -0.014317693 0.07266908
00000000: b9f4 573d cdea 44bd 5a92 783d d065 8b3d
00000010: ce87 01bd 861e a23d 000e b5bd 7011 b9bd
00000020: 3ff7 833d b361 91bc 459b 4fbd 5470 febc
00000030: a0ce d93c 845d 8a3d 475b 47bc b920 193d
00000040: 4dfc c53d aa12 7cbb 3e22 aa3d 1be3 a3bd
00000050: 92c2 8fbb 6c31 09bc 16de a23c 0b07 f0bc
00000060: 9fc5 bcbd ab75 d43c 7f5d b0ba 6966 cc3d
00000070: 8984 bebd 898f d5bc 42a9 16bd 59f9 803b
00000080: 9a55 9cbc 31a6 b23d 8f0d 943d 004b 00bd
00000090: 81d1 a43c 5188 56bc c294 6abc 87d3 943d

fc3.weight f4 [5, 40]
0.085050404 -0.023425281 0.014457042 -0.14016275 0.15014997 -0.068217546 0.04688469 -0.11801126
0.021572266 -0.0624026 -0.051442374 0.07311354 -0.01664522 0.06961027 0.01639625 0.03751529
0.082865916 0.030603422 -0.09016899 0.04778377 -0.10408159 0.13124573 0.06170859 0.09138085
0.08022785 -0.057662006 0.12008714 0.023634395 -0.055962462 0.08799323 -0.17489995 0.032906238
-0.14521973 -0.046357818 0.07935213 -0.066218816 0.15750909 -0.12969223 0.14230777 -0.19045721
-0.028469248 -0.065359466 -0.18175113 -0.0828944 0.09064122 -0.16358395 0.115237325 -0.01599667
-0.028788408 -0.004638463 -0.11228486 0.065097496 -0.05334938 -0.14981294 0.08186592 -0.10905876
-0.085096695 0.03635252 0.065912634 -0.16256095 0.17976625 0.077496774 0.07306159 0.11620558
-0.10751037 -0.039233122 -0.07752122 0.085908145 0.06194958 -0.03726411 -0.013398602 0.15503818
-0.017891241 0.038338747 0.086093046 0.11493939 0.12802897 0.07047371 -0.11154258 0.061330497
-0.0758582 -0.16274343 0.009128818 0.1573031 0.053599536 -0.09426724 -0.009598428 -0.12709554
0.10952371 -0.091078974 -0.1379928 -0.038941264 -0.12391132 0.08991467 -0.008321368 0.08231
0.089127846 0.0996835 -0.047634576 0.13184266 -0.05280143 -0.01937226 -0.17733489 0.069695145
0.041089393 0.14612547 -0.05276852 0.0890132 0.09179775 -0.055076234 0.1391028 0.047624685
-0.12414722 0.14988187 -0.052865967 0.0898299 0.009808764 -0.07139908 -0.11092545 0.12324909
0.08463529 -0.00044733172 0.05855811 -0.059467427 0.104960255 -0.18321702 0.02616487 -0.098609805
-0.13011746 0.15604337 0.02454344 -0.05736764 0.15836379 0.0033071141 -0.063448526 -0.04714977
0.019436218 0.052023057 -0.115288526 -0.00539407 0.041240398 0.0433024 -0.17979749 0.042997394
0.019917786 0.10307601 0.15905437 0.038668532 0.080666035 0.005537867 0.010250153 -0.051469143
0.18493013 -0.084416725 0.027630256 0.12515175 -0.14339899 -0.07638051 -0.13459428 -0.15263206
-0.15060045 0.12824313 -0.13620925 -0.027448587 0.0072312406 -0.06542505 -0.05187091 0.16318424
0.15351893 -0.16627057 0.023647612 -0.020445833 0.019897655 0.16431455 -0.1446043 -0.045058846
0.0400521 -0.15600923 0.06282934 -0.1082389 -0.048888877 -0.1539615 0.10334988 0.108029
-0.023240546 0.020031422 0.057272892 0.009995642 0.14326623 -0.10953256 -0.089273825 -0.15280177
-0.041831102 0.028086584 0.11514613 -0.07894058 0.093918875 -0.15003183 -0.1450417 -0.16113311
00000000: e82e ae3d 60e6 bfbc 3bdd 6c3c d386 0fbe
00000010: eac0 193e a4b5 8bbd 290a 403d e3af f1bd
00000020: 52b8 b03c de99 7fbd 3db5 52bd 8dbc 953d
00000030: 8e5b 88bc d48f 8e3d 6e51 863c a2a9 193d
00000040: 9bb5 a93d 07b4 fa3c 85aa b8bd eab8 433d
00000050: bb28 d5bd 4865 063e 25c2 7c3d e225 bb3d
00000060: 804e a43d ff2e 6cbd 3ff0 f53d eb9c c13c
00000070: e538 65bd cb35 b43d f918 33be b1c8 063d
00000080: 7bb4 14be b2e1 3dbd 5f83 a23d bb9d 87bd
00000090: 104a 213e 0ace 04be 21b9 113e 3707 43be
000000a0: 5738 e9bc 2fdb 85bd f81c 3abe 8ac4 a9bd
000000b0: 1ba2 b93d 8d82 27be 8c01 ec3d 730b 83bc
000000c0: abd5 ebbc 3ffe 97bb 9bf5 e5bd d651 853d
000000d0: e184 5abd 9068 19be 52a9 a73d 335a dfbd
000000e0: 2d47 aebd 61e6 143d 34fd 863d 6176 26be
000000f0: a514 383e a1b6 9e3d 51a1 953d 31fd ed3d
00000100: 662e dcbd e9b2 20bd 72c3 9ebd 9cf0 af3d
00000110: d8be 7d3d 40a2 18bd cf85 5bbc 54c2 1e3e
00000120: a790 92bc 1709 1d3d 8d51 b03d 5865 eb3d
00000130: 071a 033e 8554 903d 7070 e4bd b035 7b3d
00000140: 8b5b 9bbd 37a6 26be 0a91 153c 1014 213e
00000150: 308b 5b3d 2f0f c1bd ba42 1dbc 5525 02be
00000160: f84d e03d 9d87 babd fc4d 0dbe e080 1fbd
00000170: 38c5 fdbd 2f25 b83d 5956 08bc 2592 a83d
00000180: a988 b63d dd26 cc3d 791c 43bd c301 073e
00000190: 5046 58bd 93b2 9ebc 4797 35be 54bc 8e3d
000001a0: 5a4d 283d eaa1 153e ce23 58bd 8d4c b63d
000001b0: 7500 bc3d 9e97 61bd f770 0e3e 1a12 433d
000001c0: e640 febd a27a 193e fc89 58bd bdf8 b73d
000001d0: f0b4 203c ae39 92bd e22c e3bd 056a fc3d
000001e0: 4455 ad3d d987 eab9 a1da 6f3d 1e94 73bd
000001f0: 67f5 d63d 3e9d 3bbe b657 d63c f0f3 c9bd
00000200: 833d 05be d5c9 1f3e 530f c93c 55fa 6abd
00000210: 1e2a 223e 2bbc 583b 4df1 81bd 1e20 41bd
00000220: b438 9f3c 2116 553d 641c ecbd bdc0 b0bb
00000230: b1eb 283d db5d 313d d51c 38be 091e 303d
00000240: a02a a33c 8419 d33d 26df 223e e562 1e3d
00000250: 3c34 a53d ff76 b53b 42f0 273c 4fd1 52bd
00000260: 535e 3d3e ade2 acbd d958 e23c c827 003e
00000270: 2fd7 12be 636d 9cbd 15d3 09be 944b 1cbe
00000280: 0137 1abe 2b52 033e 707a 0bbe dcdb e0bc
00000290: 0bf4 ec3b 92fd 85bd 9776 54bd c519 273e
000002a0: 1134 1d3e d542 2abe a3b8 c13c 057e a7bc
000002b0: 6800 a33c 1342 283e 2613 14be a08f 38bd
000002c0: ac0d 243d e2c0 1fbe abac 803d 5bac ddbd
000002d0: b43f 48bd 15a8 1dbe 1aa9 d33d 4f3e dd3d
000002e0: f562 bebc f018 a43c fb96 6a3d c3c4 233c
000002f0: 62b4 123e 9b52 e0bd 32d5 b6bd 1178 1cbe
00000300: 1757 2bbd d615 e63c bcd1 eb3d 99ab a1bd
00000310: 8a58 c03d f2a1 19be d085 14be 1400 25be

fc3.bias f4 [5]
-0.074692026 -0.12012311 0.15745273 0.026335968 -0.062324777
00000000: 22f8 98bd 1b03 f6bd 4a3b 213e 87be d73c
00000010: 4448 7fbd
